…
ch_normalization': True}, {'filters': 32, 'kernel_size': (1, 1), 'pool_size': (2, 2), 'strides': (2, 2), 'batch_normalization': True}, {'filters': 32, 'kernel_size': (5, 5), 'pool_size': (1, 1), 'strides': (1, 1), 'batch_normalization': True}, {'filters': 32, 'kernel_size': (3, 3), 'pool_size': (1, 1), 'strides': (1, 1), 'batch_normalization': True}]
Model: "sequential"
_________________________________________________________________
 Layer (type)                Output Shape              Param #   
=================================================================
 conv_0 (Conv2D)             (None, 128, 128, 8)       32        
                                                                 
 max_pool_0 (MaxPooling2D)   (None, 128, 128, 8)       0         
                                                                 
 spatial_dropout2d (Spatial  (None, 128, 128, 8)       0         
 Dropout2D)                                                      
                                                                 
 batch_normalization (Batch  (None, 128, 128, 8)       32        
 Normalization)                                                  
                                                                 
 conv_1 (Conv2D)             (None, 128, 128, 8)       1608      
                                                                 
 max_pool_1 (MaxPooling2D)   (None, 128, 128, 8)       0         
                                                                 
 spatial_dropout2d_1 (Spati  (None, 128, 128, 8)       0         
 alDropout2D)                                                    
                                                                 
 batch_normalization_1 (Bat  (None, 128, 128, 8)       32        
 chNormalization)                                                
                                                                 
 conv_2 (Conv2D)             (None, 128, 128, 8)       584       
                                                                 
 max_pool_2 (MaxPooling2D)   (None, 128, 128, 8)       0         
                                                                 
 spatial_dropout2d_2 (Spati  (None, 128, 128, 8)       0         
 alDropout2D)                                                    
                                                                 
 batch_normalization_2 (Bat  (None, 128, 128, 8)       32        
 chNormalization)                                                
                                                                 
 conv_3 (Conv2D)             (None, 128, 128, 16)      144       
                                                                 
 max_pool_3 (MaxPooling2D)   (None, 64, 64, 16)        0         
                                                                 
 spatial_dropout2d_3 (Spati  (None, 64, 64, 16)        0         
 alDropout2D)                                                    
                                                                 
 batch_normalization_3 (Bat  (None, 64, 64, 16)        64        
 chNormalization)                                                
                                                                 
 conv_4 (Conv2D)             (None, 64, 64, 16)        6416      
                                                                 
 max_pool_4 (MaxPooling2D)   (None, 64, 64, 16)        0         
                                                                 
 spatial_dropout2d_4 (Spati  (None, 64, 64, 16)        0         
 alDropout2D)                                                    
                                                                 
 batch_normalization_4 (Bat  (None, 64, 64, 16)        64        
 chNormalization)                                                
                                                                 
 conv_5 (Conv2D)             (None, 64, 64, 16)        2320      
                                                                 
 max_pool_5 (MaxPooling2D)   (None, 64, 64, 16)        0         
                                                                 
 spatial_dropout2d_5 (Spati  (None, 64, 64, 16)        0         
 alDropout2D)                                                    
                                                                 
 batch_normalization_5 (Bat  (None, 64, 64, 16)        64        
 chNormalization)                                                
                                                                 
 conv_6 (Conv2D)             (None, 64, 64, 32)        544       
                                                                 
 max_pool_6 (MaxPooling2D)   (None, 32, 32, 32)        0         
                                                                 
 spatial_dropout2d_6 (Spati  (None, 32, 32, 32)        0         
 alDropout2D)                                                    
                                                                 
 batch_normalization_6 (Bat  (None, 32, 32, 32)        128       
 chNormalization)                                                
                                                                 
 conv_7 (Conv2D)             (None, 32, 32, 32)        25632     
                                                                 
 max_pool_7 (MaxPooling2D)   (None, 32, 32, 32)        0         
                                                                 
 spatial_dropout2d_7 (Spati  (None, 32, 32, 32)        0         
 alDropout2D)                                                    
                                                                 
 batch_normalization_7 (Bat  (None, 32, 32, 32)        128       
 chNormalization)                                                
                                                                 
 conv_8 (Conv2D)             (None, 32, 32, 32)        9248      
                                                                 
 max_pool_8 (MaxPooling2D)   (None, 32, 32, 32)        0         
                                                                 
 spatial_dropout2d_8 (Spati  (None, 32, 32, 32)        0         
 alDropout2D)                                                    
                                                                 
 batch_normalization_8 (Bat  (None, 32, 32, 32)        128       
 chNormalization)                                                
                                                                 
 conv_9 (Conv2D)             (None, 32, 32, 64)        2112      
                                                                 
 max_pool_9 (MaxPooling2D)   (None, 16, 16, 64)        0         
                                                                 
 spatial_dropout2d_9 (Spati  (None, 16, 16, 64)        0         
 alDropout2D)                                                    
                                                                 
 batch_normalization_9 (Bat  (None, 16, 16, 64)        256       
 chNormalization)                                                
                                                                 
 conv_10 (Conv2D)            (None, 16, 16, 64)        102464    
                                                                 
 max_pool_10 (MaxPooling2D)  (None, 16, 16, 64)        0         
                                                                 
 spatial_dropout2d_10 (Spat  (None, 16, 16, 64)        0         
 ialDropout2D)                                                   
                                                                 
 batch_normalization_10 (Ba  (None, 16, 16, 64)        256       
 tchNormalization)                                               
                                                                 
 conv_11 (Conv2D)            (None, 16, 16, 64)        36928     
                                                                 
 max_pool_11 (MaxPooling2D)  (None, 16, 16, 64)        0         
                                                                 
 spatial_dropout2d_11 (Spat  (None, 16, 16, 64)        0         
 ialDropout2D)                                                   
                                                                 
 batch_normalization_11 (Ba  (None, 16, 16, 64)        256       
 tchNormalization)                                               
                                                                 
 conv_12 (Conv2D)            (None, 16, 16, 32)        2080      
                                                                 
 max_pool_12 (MaxPooling2D)  (None, 8, 8, 32)          0         
                                                                 
 spatial_dropout2d_12 (Spat  (None, 8, 8, 32)          0         
 ialDropout2D)                                                   
                                                                 
 batch_normalization_12 (Ba  (None, 8, 8, 32)          128       
 tchNormalization)                                               
                                                                 
 conv_13 (Conv2D)            (None, 8, 8, 32)          25632     
                                                                 
 max_pool_13 (MaxPooling2D)  (None, 8, 8, 32)          0         
                                                                 
 spatial_dropout2d_13 (Spat  (None, 8, 8, 32)          0         
 ialDropout2D)                                                   
                                                                 
 batch_normalization_13 (Ba  (None, 8, 8, 32)          128       
 tchNormalization)                                               
                                                                 
 conv_14 (Conv2D)            (None, 8, 8, 32)          9248      
                                                                 
 max_pool_14 (MaxPooling2D)  (None, 8, 8, 32)          0         
                                                                 
 spatial_dropout2d_14 (Spat  (None, 8, 8, 32)          0         
 ialDropout2D)                                                   
                                                                 
 batch_normalization_14 (Ba  (None, 8, 8, 32)          128       
 tchNormalization)                                               
                                                                 
 global_max_pooling2d (Glob  (None, 32)                0         
 alMaxPooling2D)                                                 
                                                                 
 dense_0 (Dense)             (None, 1024)              33792     
                                                                 
 dropout (Dropout)           (None, 1024)              0         
                                                                 
 batch_normalization_15 (Ba  (None, 1024)              4096      
 tchNormalization)                                               
                                                                 
 dense_1 (Dense)             (None, 512)               524800    
                                                                 
 dropout_1 (Dropout)         (None, 512)               0         
                                                                 
 batch_normalization_16 (Ba  (None, 512)               2048      
 tchNormalization)                                               
                                                                 
 dense_2 (Dense)             (None, 256)               131328    
                                                                 
 dropout_2 (Dropout)         (None, 256)               0         
                                                                 
 batch_normalization_17 (Ba  (None, 256)               1024      
 tchNormalization)                                               
                                                                 
 dense_3 (Dense)             (None, 128)               32896     
                                                                 
 dropout_3 (Dropout)         (None, 128)               0         
                                                                 
 batch_normalization_18 (Ba  (None, 128)               512       
 tchNormalization)                                               
                                                                 
 dense_4 (Dense)             (None, 64)                8256      
                                                                 
 dropout_4 (Dropout)         (None, 64)                0         
                                                                 
 batch_normalization_19 (Ba  (None, 64)                256       
 tchNormalization)                                               
                                                                 
 dense (Dense)               (None, 4)                 260       
                                                                 
=================================================================
Total params: 966084 (3.69 MB)
Trainable params: 961204 (3.67 MB)
Non-trainable params: 4880 (19.06 KB)
_________________________________________________________________
None
Namespace(project='hw3', check=False, nogo=False, force=False, verbose=1, cpus_per_ta
…
